…
06/12/2020 03:47:55 PM: [ Num words in source = 34131 and target = 28239 ]
06/12/2020 03:47:55 PM: [ Trainable #parameters [encoder-decoder] 44.2M [total] 77M ]
06/12/2020 03:47:55 PM: [ Breakdown of the trainable paramters
+------------------------------------------------------------------------------+--------------+----------+
| Layer Name                                                                   | Output Shape |  Param # |
+------------------------------------------------------------------------------+--------------+----------+
| embedder.src_word_embeddings.make_embedding.emb_luts.0.weight                | [34131, 512] | 17475072 |
| embedder.tgt_word_embeddings.make_embedding.emb_luts.0.weight                | [28239, 512] | 14458368 |
| embedder.tgt_pos_embeddings.weight                                           |    [52, 512] |    26624 |
| encoder.transformer.layer.0.attention.key.weight                             |   [512, 512] |   262144 |
| encoder.transformer.layer.0.attention.key.bias                               |        [512] |      512 |
| encoder.transformer.layer.0.attention.query.weight                           |   [512, 512] |   262144 |
| encoder.transformer.layer.0.attention.query.bias                             |        [512] |      512 |
| encoder.transformer.layer.0.attention.value.weight                           |   [512, 512] |   262144 |
| encoder.transformer.layer.0.attention.value.bias                             |        [512] |      512 |
| encoder.transformer.layer.0.attention.output.weight                          |   [512, 512] |   262144 |
| encoder.transformer.layer.0.attention.output.bias                            |        [512] |      512 |
| encoder.transformer.layer.0.attention.relative_positions_embeddings_k.weight |     [65, 64] |     4160 |
| encoder.transformer.layer.0.attention.relative_positions_embeddings_v.weight |     [65, 64] |     4160 |
| encoder.transformer.layer.0.layer_norm.weight                                |        [512] |      512 |
| encoder.transformer.layer.0.layer_norm.bias                                  |        [512] |      512 |
| encoder.transformer.layer.0.feed_forward.intermediate.weight                 |  [2048, 512] |  1048576 |
| encoder.transformer.layer.0.feed_forward.intermediate.bias                   |       [2048] |     2048 |
| encoder.transformer.layer.0.feed_forward.output.weight                       |  [512, 2048] |  1048576 |
| encoder.transformer.layer.0.feed_forward.output.bias                         |        [512] |      512 |
| encoder.transformer.layer.0.feed_forward.layer_norm.weight                   |        [512] |      512 |
| encoder.transformer.layer.0.feed_forward.layer_norm.bias                     |        [512] |      512 |
| encoder.transformer.layer.1.attention.key.weight                             |   [512, 512] |   262144 |
| encoder.transformer.layer.1.attention.key.bias                               |        [512] |      512 |
| encoder.transformer.layer.1.attention.query.weight                           |   [512, 512] |   262144 |
| encoder.transformer.layer.1.attention.query.bias                             |        [512] |      512 |
| encoder.transformer.layer.1.attention.value.weight                           |   [512, 512] |   262144 |
| encoder.transformer.layer.1.attention.value.bias                             |        [512] |      512 |
| encoder.transformer.layer.1.attention.output.weight                          |   [512, 512] |   262144 |
| encoder.transformer.layer.1.attention.output.bias                            |        [512] |      512 |
| encoder.transformer.layer.1.attention.relative_positions_embeddings_k.weight |     [65, 64] |     4160 |
| encoder.transformer.layer.1.attention.relative_positions_embeddings_v.weight |     [65, 64] |     4160 |
| encoder.transformer.layer.1.layer_norm.weight                                |        [512] |      512 |
| encoder.transformer.layer.1.layer_norm.bias                                  |        [512] |      512 |
| encoder.transformer.layer.1.feed_forward.intermediate.weight                 |  [2048, 512] |  1048576 |
| encoder.transformer.layer.1.feed_forward.intermediate.bias                   |       [2048] |     2048 |
| encoder.transformer.layer.1.feed_forward.output.weight                       |  [512, 2048] |  1048576 |
| encoder.transformer.layer.1.feed_forward.output.bias                         |        [512] |      512 |
| encoder.transformer.layer.1.feed_forward.layer_norm.weight                   |        [512] |      512 |
| encoder.transformer.layer.1.feed_forward.layer_norm.bias                     |        [512] |      512 |
| encoder.transformer.layer.2.attention.key.weight                             |   [512, 512] |   262144 |
| encoder.transformer.layer.2.attention.key.bias                               |        [512] |      512 |
| encoder.transformer.layer.2.attention.query.weight                           |   [512, 512] |   262144 |
| encoder.transformer.layer.2.attention.query.bias                             |        [512] |      512 |
| encoder.transformer.layer.2.attention.value.weight                           |   [512, 512] |   262144 |
| encoder.transformer.layer.2.attention.value.bias                             |        [512] |      512 |
| encoder.transformer.layer.2.attention.output.weight                          |   [512, 512] |   262144 |
| encoder.transformer.layer.2.attention.output.bias                            |        [512] |      512 |
| encoder.transformer.layer.2.attention.relative_positions_embeddings_k.weight |     [65, 64] |     4160 |
| encoder.transformer.layer.2.attention.relative_positions_embeddings_v.weight |     [65, 64] |     4160 |
| encoder.transformer.layer.2.layer_norm.weight                                |        [512] |      512 |
| encoder.transformer.layer.2.layer_norm.bias                                  |        [512] |      512 |
| encoder.transformer.layer.2.feed_forward.intermediate.weight                 |  [2048, 512] |  1048576 |
| encoder.transformer.layer.2.feed_forward.intermediate.bias                   |       [2048] |     2048 |
| encoder.transformer.layer.2.feed_forward.output.weight                       |  [512, 2048] |  1048576 |
| encoder.transformer.layer.2.feed_forward.output.bias                         |        [512] |      512 |
| encoder.transformer.layer.2.feed_forward.layer_norm.weight                   |        [512] |      512 |
| encoder.transformer.layer.2.feed_forward.layer_norm.bias                     |        [512] |      512 |
| encoder.transformer.layer.3.attention.key.weight                             |   [512, 512] |   262144 |
| encoder.transformer.layer.3.attention.key.bias                               |        [512] |      512 |
| encoder.transformer.layer.3.attention.query.weight                           |   [512, 512] |   262144 |
| encoder.transformer.layer.3.attention.query.bias                             |        [512] |      512 |
| encoder.transformer.layer.3.attention.value.weight                           |   [512, 512] |   262144 |
| encoder.transformer.layer.3.attention.value.bias                             |        [512] |      512 |
| encoder.transformer.layer.3.attention.output.weight                          |   [512, 512] |   262144 |
| encoder.transformer.layer.3.attention.output.bias                            |        [512] |      512 |
| encoder.transformer.layer.3.attention.relative_positions_embeddings_k.weight |     [65, 64] |     4160 |
| encoder.transformer.layer.3.attention.relative_positions_embeddings_v.weight |     [65, 64] |     4160 |
| encoder.transformer.layer.3.layer_norm.weight                                |        [512] |      512 |
| encoder.transformer.layer.3.layer_norm.bias                                  |        [512] |      512 |
| encoder.transformer.layer.3.feed_forward.intermediate.weight                 |  [2048, 512] |  1048576 |
| encoder.transformer.layer.3.feed_forward.intermediate.bias                   |       [2048] |     2048 |
| encoder.transformer.layer.3.feed_forward.output.weight                       |  [512, 2048] |  1048576 |
| encoder.transformer.layer.3.feed_forward.output.bias                         |        [512] |      512 |
| encoder.transformer.layer.3.feed_forward.layer_norm.weight                   |        [512] |      512 |
| encoder.transformer.layer.3.feed_forward.layer_norm.bias                     |        [512] |      512 |
| encoder.transformer.layer.4.attention.key.weight                             |   [512, 512] |   262144 |
| encoder.transformer.layer.4.attention.key.bias                               |        [512] |      512 |
| encoder.transformer.layer.4.attention.query.weight                           |   [512, 512] |   262144 |
| encoder.transformer.layer.4.attention.query.bias                             |        [512] |      512 |
| encoder.transformer.layer.4.attention.value.weight                           |   [512, 512] |   262144 |
| encoder.transformer.layer.4.attention.value.bias                             |        [512] |      512 |
| encoder.transformer.layer.4.attention.output.weight                          |   [512, 512] |   262144 |
| encoder.transformer.layer.4.attention.output.bias                            |        [512] |      512 |
| encoder.transformer.layer.4.attention.relative_positions_embeddings_k.weight |     [65, 64] |     4160 |
| encoder.transformer.layer.4.attention.relative_positions_embeddings_v.weight |     [65, 64] |     4160 |
| encoder.transformer.layer.4.layer_norm.weight                                |        [512] |      512 |
| encoder.transformer.layer.4.layer_norm.bias                                  |        [512] |      512 |
| encoder.transformer.layer.4.feed_forward.intermediate.weight                 |  [2048, 512] |  1048576 |
| encoder.transformer.layer.4.feed_forward.intermediate.bias                   |       [2048] |     2048 |
| encoder.transformer.layer.4.feed_forward.output.weight                       |  [512, 2048] |  1048576 |
| encoder.transformer.layer.4.feed_forward.output.bias                         |        [512] |      512 |
| encoder.transformer.layer.4.feed_forward.layer_norm.weight                   |        [512] |      512 |
| encoder.transformer.layer.4.feed_forward.layer_norm.bias                     |        [512] |      512 |
| encoder.transformer.layer.5.attention.key.weight                             |   [512, 512] |   262144 |
| encoder.transformer.layer.5.attention.key.bias                               |        [512] |      512 |
| encoder.transformer.layer.5.attention.query.weight                           |   [512, 512] |   262144 |
| encoder.transformer.layer.5.attention.query.bias                             |        [512] |      512 |
| encoder.transformer.layer.5.attention.value.weight                           |   [512, 512] |   262144 |
| encoder.transformer.layer.5.attention.value.bias                             |        [512] |      512 |
| encoder.transformer.layer.5.attention.output.weight                          |   [512, 512] |   262144 |
| encoder.transformer.layer.5.attention.output.bias                            |        [512] |      512 |
| encoder.transformer.layer.5.attention.relative_positions_embeddings_k.weight |     [65, 64] |     4160 |
| encoder.transformer.layer.5.attention.relative_positions_embeddings_v.weight |     [65, 64] |     4160 |
| encoder.transformer.layer.5.layer_norm.weight                                |        [512] |      512 |
| encoder.transformer.layer.5.layer_norm.bias                                  |        [512] |      512 |
| encoder.transformer.layer.5.feed_forward.intermediate.weight                 |  [2048, 512] |  1048576 |
| encoder.transformer.layer.5.feed_forward.intermediate.bias                   |       [2048] |     2048 |
| encoder.transformer.layer.5.feed_forward.output.weight                       |  [512, 2048] |  1048576 |
| encoder.transformer.layer.5.feed_forward.output.bias                         |        [512] |      512 |
| encoder.transformer.layer.5.feed_forward.layer_norm.weight                   |        [512] |      512 |
| encoder.transformer.layer.5.feed_forward.layer_norm.bias                     |        [512] |      512 |
| decoder.transformer.layer.0.attention.key.weight                             |   [512, 512] |   262144 |
| decoder.transformer.layer.0.attention.key.bias                               |        [512] |      512 |
| decoder.transformer.layer.0.attention.query.weight                           |   [512, 512] |   262144 |
| decoder.transformer.layer.0.attention.query.bias                             |        [512] |      512 |
| decoder.transformer.layer.0.attention.value.weight                           |   [512, 512] |   262144 |
| decoder.transformer.layer.0.attention.value.bias                             |        [512] |      512 |
| decoder.transformer.layer.0.attention.output.weight                          |   [512, 512] |   262144 |
| decoder.transformer.layer.0.attention.output.bias                            |        [512] |      512 |
| decoder.transformer.layer.0.layer_norm.weight                                |        [512] |      512 |
| decoder.transformer.layer.0.layer_norm.bias                                  |        [512] |      512 |
| decoder.transformer.layer.0.context_attn.key.weight                          |   [512, 512] |   262144 |
| decoder.transformer.layer.0.context_attn.key.bias                            |        [512] |      512 |
| decoder.transformer.layer.0.context_attn.query.weight                        |   [512, 512] |   262144 |
| decoder.transformer.layer.0.context_attn.query.bias                          |        [512] |      512 |
| decoder.transformer.layer.0.context_attn.value.weight                        |   [512, 512] |   262144 |
| decoder.transformer.layer.0.context_attn.value.bias                          |        [512] |      512 |
| decoder.transformer.layer.0.context_attn.output.weight                       |   [512, 512] |   262144 |
| decoder.transformer.layer.0.context_attn.output.bias                         |        [512] |      512 |
| decoder.transformer.layer.0.layer_norm_2.weight                              |        [512] |      512 |
| decoder.transformer.layer.0.layer_norm_2.bias                                |        [512] |      512 |
| decoder.transformer.layer.0.feed_forward.intermediate.weight                 |  [2048, 512] |  1048576 |
| decoder.transformer.layer.0.feed_forward.intermediate.bias                   |       [2048] |     2048 |
| decoder.transformer.layer.0.feed_forward.output.weight                       |  [512, 2048] |  1048576 |
| decoder.transformer.layer.0.feed_forward.output.bias                         |        [512] |      512 |
| decoder.transformer.layer.0.feed_forward.layer_norm.weight                   |        [512] |      512 |
| decoder.transformer.layer.0.feed_forward.layer_norm.bias                     |        [512] |      512 |
| decoder.transformer.layer.1.attention.key.weight                             |   [512, 512] |   262144 |
| decoder.transformer.layer.1.attention.key.bias                               |        [512] |      512 |
| decoder.transformer.layer.1.attention.query.weight                           |   [512, 512] |   262144 |
| decoder.transformer.layer.1.attention.query.bias                             |        [512] |      512 |
| decoder.transformer.layer.1.attention.value.weight                           |   [512, 512] |   262144 |
| decoder.transformer.layer.1.attention.value.bias                             |        [512] |      512 |
| decoder.transformer.layer.1.attention.output.weight                          |   [512, 512] |   262144 |
| decoder.transformer.layer.1.attention.output.bias                            |        [512] |      512 |
| decoder.transformer.layer.1.layer_norm.weight                                |        [512] |      512 |
| decoder.transformer.layer.1.layer_norm.bias                                  |        [512] |      512 |
| decoder.transformer.layer.1.context_attn.key.weight                          |   [512, 512] |   262144 |
| decoder.transformer.layer.1.context_attn.key.bias                            |        [512] |      512 |
| decoder.transformer.layer.1.context_attn.query.weight                        |   [512, 512] |   262144 |
| decoder.transformer.layer.1.context_attn.query.bias                          |        [512] |      512 |
| decoder.transformer.layer.1.context_attn.value.weight                        |   [512, 512] |   262144 |
| decoder.transformer.layer.1.context_attn.value.bias                          |        [512] |      512 |
| decoder.transformer.layer.1.context_attn.output.weight                       |   [512, 512] |   262144 |
| decoder.transformer.layer.1.context_attn.output.bias                         |        [512] |      512 |
| decoder.transformer.layer.1.layer_norm_2.weight                              |        [512] |      512 |
| decoder.transformer.layer.1.layer_norm_2.bias                                |        [512] |      512 |
| decoder.transformer.layer.1.feed_forward.intermediate.weight                 |  [2048, 512] |  1048576 |
| decoder.transformer.layer.1.feed_forward.intermediate.bias                   |       [2048] |     2048 |
| decoder.transformer.layer.1.feed_forward.output.weight                       |  [512, 2048] |  1048576 |
| decoder.transformer.layer.1.feed_forward.output.bias                         |        [512] |      512 |
| decoder.transformer.layer.1.feed_forward.layer_norm.weight                   |        [512] |      512 |
| decoder.transformer.layer.1.feed_forward.layer_norm.bias                     |        [512] |      512 |
| decoder.transformer.layer.2.attention.key.weight                             |   [512, 512] |   262144 |
| decoder.transformer.layer.2.attention.key.bias                               |        [512] |      512 |
| decoder.transformer.layer.2.attention.query.weight                           |   [512, 512] |   262144 |
| decoder.transformer.layer.2.attention.query.bias                             |        [512] |      512 |
| decoder.transformer.layer.2.attention.value.weight                           |   [512, 512] |   262144 |
| decoder.transformer.layer.2.attention.value.bias                             |        [512] |      512 |
| decoder.transformer.layer.2.attention.output.weight                          |   [512, 512] |   262144 |
| decoder.transformer.layer.2.attention.output.bias                            |        [512] |      512 |
| decoder.transformer.layer.2.layer_norm.weight                                |        [512] |      512 |
| decoder.transformer.layer.2.layer_norm.bias                                  |        [512] |      512 |
| decoder.transformer.layer.2.context_attn.key.weight                          |   [512, 512] |   262144 |
| decoder.transformer.layer.2.context_attn.key.bias                            |        [512] |      512 |
| decoder.transformer.layer.2.context_attn.query.weight                        |   [512, 512] |   262144 |
| decoder.transformer.layer.2.context_attn.query.bias                          |        [512] |      512 |
| decoder.transformer.layer.2.context_attn.value.weight                        |   [512, 512] |   262144 |
| decoder.transformer.layer.2.context_attn.value.bias                          |        [512] |      512 |
| decoder.transformer.layer.2.context_attn.output.weight                       |   [512, 512] |   262144 |
| decoder.transformer.layer.2.context_attn.output.bias                         |        [512] |      512 |
| decoder.transformer.layer.2.layer_norm_2.weight                              |        [512] |      512 |
| decoder.transformer.layer.2.layer_norm_2.bias                                |        [512] |      512 |
| decoder.transformer.layer.2.feed_forward.intermediate.weight                 |  [2048, 512] |  1048576 |
| decoder.transformer.layer.2.feed_forward.intermediate.bias                   |       [2048] |     2048 |
| decoder.transformer.layer.2.feed_forward.output.weight                       |  [512, 2048] |  1048576 |
| decoder.transformer.layer.2.feed_forward.output.bias                         |        [512] |      512 |
| decoder.transformer.layer.2.feed_forward.layer_norm.weight                   |        [512] |      512 |
| decoder.transformer.layer.2.feed_forward.layer_norm.bias                     |        [512] |      512 |
| decoder.transformer.layer.3.attention.key.weight                             |   [512, 512] |   262144 |
| decoder.transformer.layer.3.attention.key.bias                               |        [512] |      512 |
| decoder.transformer.layer.3.attention.query.weight                           |   [512, 512] |   262144 |
| decoder.transformer.layer.3.attention.query.bias                             |        [512] |      512 |
| decoder.transformer.layer.3.attention.value.weight                           |   [512, 512] |   262144 |
| decoder.transformer.layer.3.attention.value.bias                             |        [512] |      512 |
| decoder.transformer.layer.3.attention.output.weight                          |   [512, 512] |   262144 |
| decoder.transformer.layer.3.attention.output.bias                            |        [512] |      512 |
| decoder.transformer.layer.3.layer_norm.weight                                |        [512] |      512 |
| decoder.transformer.layer.3.layer_norm.bias                                  |        [512] |      512 |
| decoder.transformer.layer.3.context_attn.key.weight                          |   [512, 512] |   262144 |
| decoder.transformer.layer.3.context_attn.key.bias                            |        [512] |      512 |
| decoder.transformer.layer.3.context_attn.query.weight                        |   [512, 512] |   262144 |
| decoder.transformer.layer.3.context_attn.query.bias                          |        [512] |      512 |
| decoder.transformer.layer.3.context_attn.value.weight                        |   [512, 512] |   262144 |
| decoder.transformer.layer.3.context_attn.value.bias                          |        [512] |      512 |
| decoder.transformer.layer.3.context_attn.output.weight                       |   [512, 512] |   262144 |
| decoder.transformer.layer.3.context_attn.output.bias                         |        [512] |      512 |
| decoder.transformer.layer.3.layer_norm_2.weight                              |        [512] |      512 |
| decoder.transformer.layer.3.layer_norm_2.bias                                |        [512] |      512 |
| decoder.transformer.layer.3.feed_forward.intermediate.weight                 |  [2048, 512] |  1048576 |
| decoder.transformer.layer.3.feed_forward.intermediate.bias                   |       [2048] |     2048 |
| decoder.transformer.layer.3.feed_forward.output.weight                       |  [512, 2048] |  1048576 |
| decoder.transformer.layer.3.feed_forward.output.bias                         |        [512] |      512 |
| decoder.transformer.layer.3.feed_forward.layer_norm.weight                   |        [512] |      512 |
| decoder.transformer.layer.3.feed_forward.layer_norm.bias                     |        [512] |      512 |
| decoder.transformer.layer.4.attention.key.weight                             |   [512, 512] |   262144 |
| decoder.transformer.layer.4.attention.key.bias                               |        [512] |      512 |
| decoder.transformer.layer.4.attention.query.weight                           |   [512, 512] |   262144 |
| decoder.transformer.layer.4.attention.query.bias                             |        [512] |      512 |
| decoder.transformer.layer.4.attention.value.weight                           |   [512, 512] |   262144 |
| decoder.transformer.layer.4.attention.value.bias                             |        [512] |      512 |
| decoder.transformer.layer.4.attention.output.weight                          |   [512, 512] |   262144 |
| decoder.transformer.layer.4.attention.output.bias                            |        [512] |      512 |
| decoder.transformer.layer.4.layer_norm.weight                                |        [512] |      512 |
| decoder.transformer.layer.4.layer_norm.bias                                  |        [512] |      512 |
| decoder.transformer.layer.4.context_attn.key.weight                          |   [512, 512] |   262144 |
| decoder.transformer.layer.4.context_attn.key.bias                            |        [512] |      512 |
| decoder.transformer.layer.4.context_attn.query.weight                        |   [512, 512] |   262144 |
| decoder.transformer.layer.4.context_attn.query.bias                          |        [512] |      512 |
| decoder.transformer.layer.4.context_attn.value.weight                        |   [512, 512] |   262144 |
| decoder.transformer.layer.4.context_attn.value.bias                          |        [512] |      512 |
| decoder.transformer.layer.4.context_attn.output.weight                       |   [512, 512] |   262144 |
| decoder.transformer.layer.4.context_attn.output.bias                         |        [512] |      512 |
| decoder.transformer.layer.4.layer_norm_2.weight                              |        [512] |      512 |
| decoder.transformer.layer.4.layer_norm_2.bias                                |        [512] |      512 |
| decoder.transformer.layer.4.feed_forward.intermediate.weight                 |  [2048, 512] |  1048576 |
| decoder.transformer.layer.4.feed_forward.intermediate.bias                   |       [2048] |     2048 |
| decoder.transformer.layer.4.feed_forward.output.weight                       |  [512, 2048] |  1048576 |
| decoder.transformer.layer.4.feed_forward.output.bias                         |        [512] |      512 |
| decoder.transformer.layer.4.feed_forward.layer_norm.weight                   |        [512] |      512 |
| decoder.transformer.layer.4.feed_forward.layer_norm.bias                     |        [512] |      512 |
| decoder.transformer.layer.5.attention.key.weight                             |   [512, 512] |   262144 |
| decoder.transformer.layer.5.attention.key.bias                               |        [512] |      512 |
| decoder.transformer.layer.5.attention.query.weight                           |   [512, 512] |   262144 |
| decoder.transformer.layer.5.attention.query.bias                             |        [512] |      512 |
| decoder.transformer.layer.5.attention.value.weight                           |   [512, 512] |   262144 |
| decoder.transformer.layer.5.attention.value.bias                             |        [512] |      512 |
| decoder.transformer.layer.5.attention.output.weight                          |   [512, 512] |   262144 |
| decoder.transformer.layer.5.attention.output.bias                            |        [512] |      512 |
| decoder.transformer.layer.5.layer_norm.weight                                |        [512] |      512 |
| decoder.transformer.layer.5.layer_norm.bias                                  |        [512] |      512 |
| decoder.transformer.layer.5.context_attn.key.weight                          |   [512, 512] |   262144 |
| decoder.transformer.layer.5.context_attn.key.bias                            |        [512] |      512 |
| decoder.transformer.layer.5.context_attn.query.weight                        |   [512, 512] |   262144 |
| decoder.transformer.layer.5.context_attn.query.bias                          |        [512] |      512 |
| decoder.transformer.layer.5.context_attn.value.weight                        |   [512, 512] |   262144 |
| decoder.transformer.layer.5.context_attn.value.bias                          |        [512] |      512 |
| decoder.transformer.layer.5.context_attn.output.weight                       |   [512, 512] |   262144 |
| decoder.transformer.layer.5.context_attn.output.bias                         |        [512] |      512 |
| decoder.transformer.layer.5.layer_norm_2.weight                              |        [512] |      512 |
| decoder.transformer.layer.5.layer_norm_2.bias                                |        [512] |      512 |
| decoder.transformer.layer.5.feed_forward.intermediate.weight                 |  [2048, 512] |  1048576 |
| decoder.transformer.layer.5.feed_forward.intermediate.bias                   |       [2048] |     2048 |
| decoder.transformer.layer.5.feed_forward.output.weight                       |  [512, 2048] |  1048576 |
| decoder.transformer.layer.5.feed_forward.output.bias                         |        [512] |      512 |
| decoder.transformer.layer.5.feed_forward.layer_norm.weight                   |        [512] |      512 |
| decoder.transformer.layer.5.feed_forward.layer_norm.bias                     |        [512] |      512 |
| generator.bias                                                               |      [28239] |    28239 |
| copy_attn.linear_in.weight                                                   |   [512, 512] |   262144 |
| copy_attn.linear_out.weight                                                  |  [512, 1024] |   524288 |
| copy_generator.linear_copy.weight                                            |     [1, 512] |      512 |
| copy_generator.linear_copy.bias                                              |          [1] |        1 |
+------------------------------------------------------------------------------+--------------+----------+ ]
06/12/2020 03:47:58 PM: [ ---------------------------------------------------------------------------------------------------- ]
06/12/2020 03:47:58 PM: [ Make data loaders ]
06/12/2020 03:47:58 PM: [ ---------------------------------------------------------------------------------------------------- ]
…
